…
stem_text    4714 non-null object
user_id      4714 non-null int64
pos_text     4714 non-null object
raw_text     4714 non-null object
tok_text     4714 non-null object
adr          4714 non-null int64
pos_token    4714 non-null object
dtypes: int64(2), object(5)
memory usage: 294.6+ KB
____________________________________________________________________________________________________
Layer (type)                     Output Shape          Param #     Connected to                     
====================================================================================================
main_input (InputLayer)          (None, 43)            0                                            
____________________________________________________________________________________________________
embedding_layer (Embedding)      (None, 43, 150)       750150      main_input[0][0]                 
____________________________________________________________________________________________________
dropout_1 (Dropout)              (None, 43, 150)       0           embedding_layer[0][0]            
____________________________________________________________________________________________________
convolution_layer_2 (Conv1D)     (None, 42, 32)        9632        dropout_1[0][0]                  
____________________________________________________________________________________________________
convolution_layer_3 (Conv1D)     (None, 41, 32)        14432       dropout_1[0][0]                  
____________________________________________________________________________________________________
max_pooling_layer_2 (MaxPooling1 (None, 21, 32)        0           convolution_layer_2[0][0]        
____________________________________________________________________________________________________
max_pooling_layer_3 (MaxPooling1 (None, 20, 32)        0           convolution_layer_3[0][0]        
____________________________________________________________________________________________________
flatten_max_layer_2 (Flatten)    (None, 672)           0           max_pooling_layer_2[0][0]        
____________________________________________________________________________________________________
flatten_max_layer_3 (Flatten)    (None, 640)           0           max_pooling_layer_3[0][0]        
____________________________________________________________________________________________________
concatenate_1 (Concatenate)      (None, 1312)          0           flatten_max_layer_2[0][0]        
                                                                   flatten_max_layer_3[0][0]        
____________________________________________________________________________________________________
dropout_2 (Dropout)              (None, 1312)          0           concatenate_1[0][0]              
____________________________________________________________________________________________________
softmax_layer (Dense)            (None, 2)             2626        dropout_2[0][0]                  
====================================================================================================
Total params: 776,840
Trainable params: 26,690
Non-trainable params: 750,150
____________________________________________________________________________________________________
Epoch 1/3
  64/4714 [..............................] - ETA: 6s - loss: 0.6303 
…
2017-09-11 11:21:26,651 : INFO : CNN: Created data set for CNN with X : (4714, 43) and Y : (4714, 2)
2017-09-11 11:21:26,668 : INFO : CNN: Retrieved 7379 word embedding vectors
2017-09-11 11:21:26,668 : INFO : CNN: Created embedding matrix for CNN of shape : (7001, 50)
2017-09-11 11:21:27,242 : INFO : CNN: None

____________________________________________________________________________________________________
Layer (type)                     Output Shape          Param #     Connected to                     
====================================================================================================
main_input (InputLayer)          (None, 43)            0                                            
____________________________________________________________________________________________________
embedding_layer (Embedding)      (None, 43, 50)        350050      main_input[0][0]                 
____________________________________________________________________________________________________
dropout_3 (Dropout)              (None, 43, 50)        0           embedding_layer[0][0]            
____________________________________________________________________________________________________
convolution_layer_2 (Conv1D)     (None, 42, 32)        3232        dropout_3[0][0]                  
____________________________________________________________________________________________________
convolution_layer_3 (Conv1D)     (None, 41, 32)        4832        dropout_3[0][0]                  
____________________________________________________________________________________________________
avg_pooling_layer_2 (AveragePool (None, 21, 32)        0           convolution_layer_2[0][0]        
____________________________________________________________________________________________________
max_pooling_layer_2 (MaxPooling1 (None, 21, 32)        0           convolution_layer_2[0][0]        
____________________________________________________________________________________________________
avg_pooling_layer_3 (AveragePool (None, 20, 32)        0           convolution_layer_3[0][0]        
____________________________________________________________________________________________________
max_pooling_layer_3 (MaxPooling1 (None, 20, 32)        0           convolution_layer_3[0][0]        
____________________________________________________________________________________________________
flatten_avg_layer_2 (Flatten)    (None, 672)           0           avg_pooling_layer_2[0][0]        
____________________________________________________________________________________________________
flatten_max_layer_2 (Flatten)    (None, 672)           0           max_pooling_layer_2[0][0]        
____________________________________________________________________________________________________
flatten_avg_layer_3 (Flatten)    (None, 640)           0           avg_pooling_layer_3[0][0]        
____________________________________________________________________________________________________
flatten_max_layer_3 (Flatten)    (None, 640)           0           max_pooling_layer_3[0][0]        
____________________________________________________________________________________________________
concatenate_2 (Concatenate)      (None, 2624)          0           flatten_avg_layer_2[0][0]        
                                                                   flatten_max_layer_2[0][0]        
                                                                   flatten_avg_layer_3[0][0]        
                                                                   flatten_max_layer_3[0][0]        
____________________________________________________________________________________________________
dropout_4 (Dropout)              (None, 2624)          0           concatenate_2[0][0]              
____________________________________________________________________________________________________
softmax_layer (Dense)            (None, 2)             5250        dropout_4[0][0]                  
====================================================================================================
Total params: 363,364
Trainable params: 13,314
Non-trainable params: 350,050
____________________________________________________________________________________________________
Epoch 1/3
  64/4714 [..............................] - ETA: 2s - loss: 2.3220 
…
